trained_model.pth (torch, 181638 bytes, 7 tensors)

embedding.weight f4 [324, 50]
000000 01 01 5e 3f 50 2c 65 3e 18 76 cb bd 6e 8b 73 bf
       0.8672028 0.22380185 -0.09934634 -0.9513463
000010 fc 8a b8 3f 64 d8 d5 3f 0e ab 2d bf 20 61 31 3f
       1.4417415 1.6706662 -0.67839134 0.69288826
000020 d8 4c 6f bf 10 09 98 bd db c7 3c 3f 33 c7 f5 3e
       -0.9347663 -0.074236035 0.73742455 0.4800354
000030 25 b3 80 3f de 45 6b 3d 2d 8e 9f 3f 82 92 07 c0
       1.005467 0.057439677 1.2465264 -2.1183171
000040 7f ac 17 c0 49 78 8c 3e 88 3c 17 c0 36 c3 45 3f
       -2.3699033 0.2743552 -2.3630695 0.77250993
000050 81 4c e8 3e a5 f4 4b 3e 49 3d 85 be a5 7f a5 bd
       0.45370868 0.19917543 -0.2602332 -0.08080987
000060 42 5d 49 3e 49 2d 7e be 0d fe da 3e fe d2 8a 3f
       0.19664481 -0.24821962 0.4277195 1.084564
000070 06 ac 1f be ec 46 1a 40 4e 00 b9 3e 05 bc a6 bf
       -0.15592965 2.4105787 0.36133045 -1.3026129
000080 46 06 e1 be 96 46 6d bb f5 2a 6d 3f 8b aa 54 bf
       -0.439501 -0.0036205403 0.9264367 -0.8307273
000090 00 99 8e 3f c7 ec 9f bf c7 58 c0 bf 55 99 04 bf
       1.1140442 -1.2494134 -1.5027093 -0.51796466
0000a0 79 80 2c 3e 0f eb b2 bf 0e e6 97 bf c8 00 8a 3e
       0.16845883 -1.3977984 -1.1867082 0.2695372
0000b0 9c 66 83 3f 3d f3 2b 3f 97 e6 41 bf e9 ef 1b 3f
       1.0265689 0.6716803 -0.7574248 0.6091295
0000c0 e0 bb 7d 3e dc 9c c5 3f b4 4b 27 bf 2f 06 47 bd
       0.247787 1.5438495 -0.6534989 -0.04858988
0000d0 36 d3 41 3e 1c cf 44 3f 45 d3 f8 3e b4 5b d6 3e
       0.18928227 0.76878524 0.48598686 0.4186684
0000e0 5b e4 ee be ef 59 95 bf e1 25 df bd b0 36 5b 3f
       -0.46658596 -1.166807 -0.10895897 0.8563032
0000f0 57 16 b4 be a2 a7 32 3f 5e 5d 9f bf 52 ea f7 be
       -0.35173294 0.6978704 -1.2450368 -0.4842096
000100 b3 5e 21 be 85 30 03 c0 72 b3 9e 3f d5 45 5b 3f
       -0.15758781 -2.0498364 1.2398512 0.8565343
000110 0c ee 4e 3f 7f 4a 2e be fb 7c ad 3f 4f 6e e3 3f
       0.8083198 -0.17020606 1.3553766 1.7768039
000120 f2 2c 8f bf a0 74 e7 bf 6a 9f c3 bf 14 f1 f2 be
       -1.1185591 -1.8082466 -1.5283024 -0.47449553
000130 d5 bb 74 be 0d cf 71 be 16 29 c0 be 16 00 1a c0
       -0.23899777 -0.2361414 -0.37531346 -2.4062552
000140 c2 4c 10 bf d7 da 00 3f df e9 e7 3d 71 8b 39 be
       -0.56367123 0.50333923 0.11323904 -0.18119599
000150 54 5e 0a 40 88 a3 f5 3f 88 6e 00 be 50 1e 96 bf
       2.1620073 1.9190531 -0.12542164 -1.1728001
000160 cc 15 02 3f a9 7c ed 3e 06 b7 86 bc 95 ca 58 3f
       0.5081451 0.4638417 -0.016444694 0.84684116
000170 10 6d 8d 3f 04 98 10 3f 83 18 f7 bf 71 f3 5d 3f
       1.1048908 0.5648196 -1.9304355 0.8669959
000180 20 d0 5d 3f 0c 20 d9 3f cc a0 a7 3e b0 cc 26 3f
       0.866457 1.6962905 0.32739866 0.6515608
000190 02 cc 22 3d 63 75 5b bf 1b 8d 58 40 2b 24 8a 3e
       0.03974534 -0.8572599 3.3836124 0.2698072
0001a0 21 79 50 3f 55 f4 86 3f c9 36 d6 3f cd 4d 07 40
       0.8143483 1.0543314 1.6735469 2.1141236
0001b0 b3 48 48 3f 5b 0d 57 bf 04 b3 3c 3f 8f 0a 54 3d
       0.7823593 -0.84004754 0.73710656 0.051767882
0001c0 c7 50 8a 3f f9 5a 58 bf 33 a5 6a bf 9f 21 16 bf
       1.0805901 -0.84513813 -0.91658324 -0.5864505
0001d0 81 31 60 bf 33 c3 a7 3f a1 a3 84 bf 22 bd a7 3b
       -0.87575537 1.3106445 -1.0362436 0.005118982
0001e0 c3 9f b5 bd 63 5c 17 3f 03 7c 06 bf 84 ad e8 3f
       -0.08868363 0.59125346 -0.52532977 1.8177953
0001f0 44 e9 68 3e 8a f6 4f 3f 1b 0c 47 3f b3 fe 21 be
       0.22745234 0.81235564 0.77752846 -0.15819816
000200 d4 2c 01 c0 02 8e ca bf 62 ab 69 3f 48 93 93 3f
       -2.018361 -1.5824587 0.91277134 1.1529322
000210 34 3c 52 3f 68 08 1d 3f 7b a4 cb be 23 a8 2a 3e
       0.8212311 0.6134095 -0.39773926 0.16665702
000220 86 5d df be e1 2e 76 bf cb 7c 9f bf 21 55 f7 3b
       -0.4362604 -0.9616528 -1.2459959 0.00754799
000230 9b 5b a3 bf 6d 36 d1 3d ee c4 5e bf d8 57 15 c0
       -1.2762331 0.10215459 -0.8701924 -2.3334866
000240 bf 53 39 bf cd e4 99 bf 6f 73 f8 3e 82 44 c2 3e
       -0.7239341 -1.202295 0.4852557 0.37942892
000250 5a 67 a2 bf 9d 2b 0d bf fd fa f4 be 6e b7 61 bf
       -1.268779 -0.55144674 -0.4784774 -0.88170516
000260 4f ac ce bf ac 09 32 bf 33 e3 73 3e a3 b9 95 3f
       -1.6146334 -0.6954601 0.23817138 1.1697277
000270 ec 74 e4 3f 5d f1 68 3e 16 42 d3 3f 1b b2 cb 3f
       1.7848182 0.22748323 1.6504543 1.5913728
000280 c5 61 5a 3f 91 71 0a bf 1f ac 63 3f 47 fc 39 be
       0.85305434 -0.5407954 0.8893451 -0.18162642
000290 3b 63 0b 3f 4b 83 c2 3f ea c9 cd 3e ae aa 8e 3f
       0.5444829 1.5196317 0.4019311 1.1145837
0002a0 2e 33 27 3f 61 7a 44 be 9b ec 00 3f bc ac 29 bf
       0.6531247 -0.19187309 0.5036103 -0.66279197
0002b0 2d c2 5d 3f b1 07 44 bf 08 d7 15 c0 76 c0 87 3f
       0.86624414 -0.76574236 -2.3412495 1.060561
0002c0 ec c6 01 bf 3b d2 a6 3f 9f 33 ea 3e 0f b2 a9 3f
       -0.50694156 1.3032907 0.4574251 1.3257464
0002d0 c1 12 8a bf b7 8d 66 bf 8a 95 a2 bd 5b 2f 9a 3e
       -1.0786973 -0.9005999 -0.079386786 0.30114254
0002e0 d5 df c4 bd b3 cb 29 3f 80 78 f0 be f7 db c1 be
       -0.09613005 0.66326445 -0.46966934 -0.37863132
0002f0 d0 54 01 40 c5 e8 2d bf 97 9a 7d 3f 49 c1 cc be
       2.0208015 -0.67933303 0.9906401 -0.39991215
000300 e6 00 fa be e2 4f cd 3f 57 be 8a bf 93 fb 4e bf
       -0.4882881 1.6040003 -1.0839337 -0.8085262
000310 41 d5 0b bf 93 8e 97 bc a2 2a b0 bf 5e ad 36 3f
       -0.54622275 -0.018500602 -1.376301 0.7135829
000320 df 42 de bf be f1 be 3e 7b 3b 2e bf 01 15 eb 3f
       -1.7364157 0.3729381 -0.6805951 1.8365785
000330 d5 22 d0 bf 37 c9 36 bb f5 43 ad 3e 8e 12 1a bf
       -1.626063 -0.002789093 0.3384091 -0.6018456
000340 ce dc a9 3f 85 dc d6 bf ea bd 98 bf 28 6e f8 3e
       1.3270509 -1.6786047 -1.1932957 0.48521543
000350 f6 bc a7 be 76 dd 2b 3e b3 1c 91 bf c7 2d 54 3c
       -0.32761353 0.167837 -1.1336883 0.012950367
000360 2a be e3 bd ef 76 97 3e 8c 21 fb be 2d 91 10 bf
       -0.11120255 0.29582927 -0.49049032 -0.5647152
000370 6b 27 0f 3f 19 db d3 be 00 12 e4 bf 0f 0d 2d 3f
       0.5591952 -0.41378096 -1.7817993 0.6759805
000380 63 da 74 3f 4b eb 58 be da 76 37 3a 43 30 62 3f
       0.9564573 -0.21183507 0.0006998606 0.8835489
000390 f2 42 1b 3f 38 fb 6a be ee 0e ad 3d 90 5b f1 be
       0.60649025 -0.22947395 0.08450113 -0.4714017
0003a0 82 80 11 40 11 9e 79 3f 3a c4 23 c0 01 d7 c7 bf
       2.2734685 0.97506815 -2.5588517 -1.5612489
0003b0 e8 bd 8e bf 42 c5 b4 be fb 3d eb bf 4c c4 2a be
       -1.1151705 -0.35306746 -1.837829 -0.16676444
0003c0 55 7c 08 3e 33 b9 95 3e 17 44 46 bf c5 27 8a be
       0.13328679 0.29242858 -0.77447647 -0.26983467
0003d0 98 5e cd bd c3 c7 32 be 44 32 3f 3f 59 0f 63 3e
       -0.10027808 -0.17459016 0.74686074 0.22173823
0003e0 57 8f a1 3e f8 8f 99 bf 54 5d 70 3f c5 a0 0a 3f
       0.31554672 -1.1997061 0.9389241 0.54151565
0003f0 67 3f f2 be 0b bd fe 3e b6 7c 63 bf 25 e4 82 bf
       -0.47313997 0.49753603 -0.8886217 -1.0225874

rnn.weight_ih_l0 f4 [64, 50]
000000 ba 50 5e 3c 2b 0a 55 bd 7f 51 65 be ca 7b 51 3e
       0.013569051 -0.05201165 -0.2239437 0.20457378
000010 50 21 a0 3d 69 a3 7f 3d 35 40 1f be ae 62 05 3e
       0.07818854 0.0624117 -0.15551837 0.13025925
000020 55 13 bd 3d 64 9f 14 be 6d f6 d5 bd f0 be c2 bd
       0.09232203 -0.14513928 -0.104473926 -0.09509075
000030 fd d2 30 be f2 50 09 3e 49 d8 f9 bb de b0 53 3d
       -0.17267986 0.13409784 -0.00762466 0.051682346
000040 46 3e d9 bc 3b bf eb 3c c2 8b 60 3d 83 b2 16 be
       -0.026518952 0.02877771 0.054820783 -0.14716534
000050 c0 86 4f 3e 1f a1 20 3e c7 86 12 be 00 2c 5b be
       0.20266247 0.15686463 -0.14309226 -0.21403503
000060 5b 30 c0 bc e4 42 d9 bd 95 c4 df 3d 04 91 d6 3d
       -0.023460558 -0.106084615 0.10926167 0.10476878
000070 0d 01 0b 3e 7e be 99 be 53 50 0f bd 83 42 f6 3c
       0.1357462 -0.30028147 -0.034988713 0.030061012
000080 84 99 34 be 2d ed 31 be 77 a9 ce bd db 7a f6 bd
       -0.17636687 -0.17375632 -0.100909166 -0.120351516
000090 2e 18 e7 bc 12 19 0d 3e 40 b4 79 3e 27 8f 80 3e
       -0.028209772 0.13779095 0.24385166 0.25109217
0000a0 91 a9 52 3e 51 c3 46 be 33 13 26 bd f4 39 5f 3c
       0.20572497 -0.19410445 -0.040545654 0.013624657
0000b0 68 b5 4c be c1 75 58 3e e2 9b 05 bc 0e 72 ab bd
       -0.19991076 0.2113867 -0.008154841 -0.083713636
0000c0 95 54 3b 3e ee ea 2e 3e 40 e2 88 bd a1 79 1b 3d
       0.18293984 0.17081806 -0.06683779 0.03795779
0000d0 6b be 88 3e 3b c4 4e 3d f3 0b 9a 3d 46 aa 9d 3d
       0.26707777 0.05048011 0.075218104 0.07698493
0000e0 65 fc f8 3c bf 9a 9b bd aa fb b0 bd e3 01 dd bc
       0.030393789 -0.07597875 -0.08641751 -0.026978439
0000f0 f8 62 01 3e 0b 02 14 bd aa 21 b7 bd 58 8c e2 3d
       0.1263541 -0.03613476 -0.08941968 0.11061925
000100 71 e6 07 be 33 65 f4 3d 88 cc b3 bc f8 b0 d4 3d
       -0.132715 0.11933365 -0.021948114 0.103853166
000110 a7 b9 4c 3e ed c3 b7 3c 31 08 91 bd fb 43 04 3e
       0.19992696 0.022432292 -0.070816405 0.12916557
000120 d6 fa 57 bd 18 de de bd e6 77 1a 3e a7 d6 62 3d
       -0.05272945 -0.10882205 0.150848 0.05538049
000130 46 0a 8a bd cb a0 ad 3e 74 95 70 3e 25 74 21 3c
       -0.06740241 0.33911738 0.23494512 0.009854351
000140 77 77 48 3e 70 25 1c bd 02 e2 2c 3d 41 09 96 bd
       0.19576822 -0.03812164 0.042207725 -0.07325984
000150 8d 75 35 bc fc 10 d6 3b de 82 a8 bd d3 6a 3c be
       -0.01107539 0.0065327864 -0.08228086 -0.18400125
000160 06 76 45 3e e4 8c ee b8 3a 5c 16 be 05 72 46 be
       0.19283304 -0.00011374967 -0.14683619 -0.19379432
000170 c8 02 16 3e 00 8e 14 3e 28 d9 f0 3d 92 bc 59 be
       0.14649498 0.14507294 0.11760169 -0.2126334
000180 6e d1 4d bd 5d df 91 bb b0 82 1b 3e 09 92 6b bc
       -0.050248556 -0.004451676 0.15186572 -0.014378079
000190 80 f6 86 3e 31 b8 13 bd 6e 5e b2 3d 8d 1d 1e bd
       0.2635994 -0.03606433 0.08709417 -0.0386024
0001a0 5c f4 83 be de 64 85 be 70 c5 18 be 9b 78 9b bc
       -0.2577237 -0.26053518 -0.14919066 -0.018978408
0001b0 4d c1 0b bd ce 15 84 be e0 ab 04 be ae da c3 3d
       -0.034119893 -0.25797886 -0.1295619 0.09563194
0001c0 b0 f0 17 be 31 6e 9b 3d f0 2d 41 3e de e6 b6 bd
       -0.14837909 0.07589377 0.1886518 -0.08930753
0001d0 f9 d9 42 3e 2f a4 1a 3e 74 55 48 bd e9 74 51 3e
       0.19028462 0.15101694 -0.04890962 0.20454754
0001e0 17 67 15 3e e3 63 3a 3c f8 6a 21 3e af b1 68 bd
       0.14590107 0.011376354 0.15763462 -0.056810077
0001f0 e5 f1 9e be 2b f4 02 3e ee b1 ed bd 3b f1 1a 3e
       -0.31043926 0.12788455 -0.11606203 0.15131085
000200 c6 7b ae bd ec e1 9a 3b aa a1 3b be ec eb 89 3d
       -0.08519702 0.004726639 -0.18323389 0.06734452
000210 e2 b4 90 bd 8d 8e 2f 3e a5 95 bf be 3e 16 72 bd
       -0.07065751 0.17144223 -0.37418857 -0.059103243
000220 3b 93 09 be 14 86 98 3c 89 16 3a 3d db 12 3d bd
       -0.1343507 0.018618621 0.045431647 -0.04616056
000230 b3 e1 fc bc 62 b0 2d 3e df f3 62 3e da 01 57 3d
       -0.03086934 0.16961816 0.22163342 0.052492
000240 03 af 92 bd 18 65 ee 3b 11 1f 18 be 39 ac 2f 3c
       -0.07162287 0.007275235 -0.14855601 0.010722213
000250 df e1 02 be 24 da b4 3d 02 5a fb bd 96 03 5f 3d
       -0.12781475 0.088306695 -0.12273027 0.05444678
000260 11 12 0f be 3b 64 eb 3d 31 a9 21 be aa a1 4a be
       -0.13971736 0.11493727 -0.15787198 -0.19788232
000270 c5 42 6e 3e 32 38 99 be cc f1 1d 3d 43 12 8e 3d
       0.23267658 -0.29925686 0.038560674 0.06937077
000280 5f 9c 4c 3e d0 e6 84 3e c4 df 78 3e 8c 37 c8 bd
       0.19981526 0.25957346 0.2430411 -0.0977622
000290 19 c1 ee 3d b7 38 8e 3d 06 e0 6d 3d 11 6d 6e bc
       0.11657924 0.06944411 0.058074974 -0.014552371
0002a0 46 fd 1f be a3 e0 d4 3d 13 c4 8e bd 18 23 ee 3d
       -0.1562396 0.103944086 -0.06970992 0.11627787
0002b0 5f 9a 0d be 50 5d f2 3d c3 e3 91 bd 99 fe fa bd
       -0.13828419 0.11834204 -0.0712352 -0.12255592
0002c0 a7 71 fb 3d 88 ed 24 be 7b 52 6b 3b d1 3a b6 bd
       0.12277537 -0.16106236 0.0035907316 -0.08897937
0002d0 df ff 33 bd 98 f0 a5 3c 4e 50 c0 be e2 2b 36 3e
       -0.04394519 0.020256326 -0.37561268 0.17790177
0002e0 80 53 09 3d 85 cd df bd d0 c2 5b bd 7a 26 ee bd
       0.033526897 -0.109278716 -0.053652585 -0.116284326
0002f0 7a 79 e6 bd ce 6a 5f 3e b5 bd 75 3e 51 a7 f4 3d
       -0.112536386 0.21818087 0.23998149 0.119459756
000300 7d 8c 30 be d8 b6 31 3d c3 11 ce bd 05 58 b3 3e
       -0.17241092 0.043387264 -0.100619815 0.3502809
000310 64 9f 8b bd 9e 49 f7 bd f9 7e 70 be f8 fc 67 be
       -0.06817511 -0.12074588 -0.23485936 -0.22655094
000320 df cc ad bb e5 9b 9c be 43 9d ce bd 7f fe ff 3d
       -0.0053039636 -0.30587688 -0.10088589 0.12499713
000330 39 3a 0a 3e 0f 4f 2b be 00 2e 21 3e aa 60 47 3e
       0.13498773 -0.16729377 0.15740204 0.19470468
000340 ef ad a8 3d b5 20 11 be 9b ab c5 3d d5 c0 cf bc
       0.082363 -0.14172633 0.09651872 -0.025360504
000350 12 53 36 be f4 be 9f 3e 6e c3 05 3e e0 41 9e bd
       -0.17805126 0.31200373 0.13062832 -0.077274084
000360 69 92 b3 bd d7 08 85 3e de 12 c7 bd f9 20 3c 3d
       -0.0876816 0.25983307 -0.097203955 0.045929883
000370 10 eb 83 3e a8 96 25 3e 30 11 60 3e d0 14 db 3d
       0.25765276 0.16170752 0.21881557 0.10697329
000380 52 9b 07 be 35 76 fa 3d 5d f8 38 be 47 9e 10 be
       -0.13242844 0.122295775 -0.18063493 -0.14122878
000390 4d 1e f3 bd 35 98 01 3e 7f 4c a9 3d 80 1c a3 bc
       -0.11871014 0.12655719 0.082665436 -0.01991105
0003a0 96 d2 68 3e 63 af 17 be f0 f4 2e be aa 4d 19 be
       0.22736582 -0.14812998 -0.17085624 -0.14971033
0003b0 75 63 e7 3c 96 70 98 bd 09 3f 29 bd 56 9f 26 be
       0.028245667 -0.07443349 -0.04131988 -0.1627172
0003c0 87 94 0b be 5c ae dd bc 29 92 be 3d 7e ba d5 bc
       -0.13630877 -0.02706068 0.093052216 -0.026089903
0003d0 92 f5 8e 3d 89 86 be bc 78 51 41 bd 93 fc 93 bd
       0.069804326 -0.02325751 -0.047196835 -0.07225909
0003e0 f9 80 e4 3d f6 6d d7 bd d2 f6 f4 bd 3f 47 d6 3c
       0.11157412 -0.1051902 -0.1196114 0.02615702
0003f0 77 79 ce bd c2 4b f6 3d be 4b 83 3d 8d 7e ed 3d
       -0.10081761 0.120261684 0.06410931 0.11596403

rnn.weight_hh_l0 f4 [64, 64]
000000 00 68 e3 3d ea cc 62 be a9 17 95 bd 80 b5 93 bd
       0.11103821 -0.22148481 -0.072799034 -0.07212353
000010 f5 6f 93 be 36 87 a2 3d 1a 9b be bd 2b 37 0b 3d
       -0.28796354 0.07935946 -0.09306927 0.03398816
000020 25 58 5a 3c ba f7 66 bd 0e 37 d9 3d 63 4a c5 bd
       0.013326679 -0.056388594 0.10606204 -0.09633329
000030 56 79 1a be 3d 00 4e bd d0 47 64 3e be 88 26 be
       -0.15085348 -0.050293196 0.2229302 -0.162631
000040 eb fe a8 3c 15 a1 96 3d ef 50 52 be ef a1 4c 3d
       0.020629367 0.07354943 -0.20538686 0.04995912
000050 04 0a 3d 3e be 44 38 3e 41 b0 01 be 2a e1 81 3d
       0.18460852 0.17994973 -0.12664892 0.06341775
000060 ce 91 e2 3e 92 ca 44 be 74 55 be 3d 21 55 a2 be
       0.44251865 -0.192179 0.09293643 -0.31705573
000070 f5 d8 11 3c 01 ec 5f bd fa 89 0d 3d 4b 1c e2 3d
       0.008901824 -0.05466843 0.034555413 0.11040553
000080 ce e4 59 bd d2 ec 03 be 06 88 99 3e e5 7a 04 be
       -0.05319672 -0.12883309 0.2998659 -0.12937506
000090 c1 95 61 3e 54 25 1c 3e be f5 0d be cf 1a 54 3d
       0.22029783 0.15248615 -0.13863274 0.05178338
0000a0 16 51 01 bd bf 8f 60 bc 19 51 20 3d 68 46 48 3e
       -0.03157147 -0.013706147 0.03913984 0.19558108
0000b0 09 ff c1 3d 91 2e 19 be 6f 9c f8 bc 66 ff fd 3d
       0.09472472 -0.1495917 -0.03034803 0.12402229
0000c0 c4 d1 50 be 76 94 8f 3d 34 85 55 3d f3 a9 1e 3e
       -0.20392519 0.070107386 0.052128986 0.15494518
0000d0 4b 91 57 3d e0 cd 9a 3e 8f 84 1e 3d 17 12 fd 3d
       0.052628797 0.30235195 0.038700636 0.12356966
0000e0 5f cb ae bd 0c 11 9f 3c 77 17 a1 bc 9a 25 59 3e
       -0.08534884 0.019417308 -0.01966451 0.2120575
0000f0 25 75 d7 bd 3b 16 3d 3d 25 5c 91 3e 30 1e 9c bd
       -0.105203904 0.04616378 0.28390613 -0.07622945
000100 a0 ca da bd fc 7b 5a 3c 0d c6 3b be ed 42 3d 3e
       -0.10683179 0.013335224 -0.18337269 0.18482561
000110 39 32 9c be 3b 63 10 3c cc 33 0e 3c c9 78 9b be
       -0.30507067 0.008812721 0.0086793415 -0.3036559
000120 99 dd 2a be 21 08 9e 3c ef 64 a0 bd b6 85 f0 bd
       -0.16686095 0.019290986 -0.078317516 -0.11744253
000130 9a f0 c7 bd 5b 06 11 3e c1 76 04 3e 8c e6 4b 3e
       -0.09762688 0.1416258 0.12935926 0.19912165
000140 8f ae 8a bc 5a 55 35 be 7d 73 b7 bd 6c f4 12 be
       -0.01692894 -0.1770834 -0.089575745 -0.14351052
000150 f0 0d 76 3e d7 26 83 3e 36 4c 4e bd a2 a0 87 3d
       0.24028754 0.2561557 -0.05036565 0.06622435
000160 e6 d1 67 3e 8c 95 88 bc 00 41 df ba 77 e5 6c 3c
       0.22638664 -0.016672872 -0.0017032921 0.014459006
000170 23 f4 84 bd c2 02 31 3e c8 6f 29 bd 2f 6f 5e bd
       -0.06491878 0.17286208 -0.04136637 -0.05430525
000180 c7 cd 87 3d b4 4b 0e be b3 2c 28 3d 4b e1 55 be
       0.06631046 -0.13896066 0.041058253 -0.20886724
000190 46 ff 45 3e f4 00 38 3e fb 0d 1a be 49 2d 89 be
       0.1933566 0.17969114 -0.15044396 -0.26792362
0001a0 fb af c9 3d c6 71 39 be 9f 09 58 3e 51 3d 92 3d
       0.09848019 -0.18109807 0.2109742 0.071406014
0001b0 e8 63 bb 3d 55 7e 2c 3e 82 59 b2 3d 1d 6c a2 3d
       0.09149915 0.16845067 0.087084785 0.07930777
0001c0 0f 8b 29 3e 30 45 25 be 3e 56 44 3e 6c 1c 69 3d
       0.16556953 -0.16139674 0.19173524 0.05691187
0001d0 09 23 f2 3d 44 10 4f 3e 72 e9 12 3e 63 4f f3 bc
       0.11823089 0.20221049 0.14346865 -0.02970094
0001e0 4a f4 ca bc fa 82 ae bd 17 36 29 3e 3b b6 57 3e
       -0.02477469 -0.085210755 0.1652454 0.21065609
0001f0 e7 e3 52 3e 00 20 03 be 01 ac 95 bd 2d d4 7e be
       0.2059475 -0.12805176 -0.07308198 -0.24885626
000200 8e c3 37 be a4 ba 78 be 7d 5a 06 3e f7 c7 82 3e
       -0.17945692 -0.24289948 0.13120456 0.25543186
000210 25 49 20 bd b9 96 a2 bd 09 77 91 3d 6c 36 97 bd
       -0.039132256 -0.07938904 0.07102782 -0.07383427
000220 94 bb 16 3d c1 d9 2c bc 27 52 d0 3d b1 7d 01 3d
       0.036799982 -0.010549963 0.10171919 0.03161401
000230 d0 c4 2a 3e 4c 1b 64 bd 61 19 3b bd d2 69 92 3b
       0.1667664 -0.055690095 -0.0456785 0.004468181
000240 7c c6 06 be aa 31 a8 3d 01 ef dd bc 56 13 e2 3d
       -0.13161653 0.08212598 -0.027091505 0.11038844
000250 5c fa a7 bd 2a 61 07 3e 5d 3c 96 3d 4e bf 66 3e
       -0.08202049 0.13220659 0.07335732 0.22533914
000260 0f 2c d7 3d 6f 6c a4 3d 45 46 de bd 40 ea ae 3d
       0.105064504 0.080284946 -0.108532466 0.085407734
000270 da 03 5a bd 15 04 5b 3c ef 14 0e bd 8d 52 fc 3c
       -0.05322633 0.013367672 -0.034687933 0.030801082
000280 78 15 89 bd 03 ad c5 bc 36 d0 4f 3c 32 d2 14 3e
       -0.06693548 -0.02413035 0.012683919 0.14533308
000290 ae 88 79 3e 9a ba ed 3d 90 bc 59 be 0b 77 ba bd
       0.24368545 0.11607857 -0.21263337 -0.09104737
0002a0 ab 8a 14 bd 38 10 28 be 17 2a 48 bc 30 a5 4e be
       -0.036265057 -0.16412437 -0.012217066 -0.20180202
0002b0 f8 66 9f bd 20 1a e2 3d db 1f 07 bd eb 00 4c be
       -0.077833116 0.11040139 -0.032989364 -0.19922225
0002c0 eb 97 31 3d 3f fb 96 3d b7 1b b7 3e ee 6e c3 bd
       0.04335777 0.0737214 0.35763332 -0.095426425
0002d0 23 ce b1 bd bc 10 5e be ab 8c 14 3e b6 5c 35 be
       -0.086818956 -0.21686071 0.14506786 -0.17711148
0002e0 73 23 24 be 76 b9 08 3e a0 7d 93 be 93 0d 6d be
       -0.16029148 0.13351998 -0.28806782 -0.2314971
0002f0 3b d4 87 3c 1f 25 07 bd 00 06 21 3e cf 02 29 be
       0.016580692 -0.032994386 0.15724945 -0.16504978
000300 65 59 36 be 77 92 07 be 41 62 0c be c2 cd 8d bc
       -0.17807539 -0.13239466 -0.13709356 -0.017310027
000310 ce e5 a5 3e ef 3d bc be cf b4 76 be c1 4d 90 bd
       0.3240189 -0.36766002 -0.2409241 -0.070460804
000320 cb 1e 65 bd 99 6f 66 3d 16 75 4d 3e 2b de c8 bd
       -0.05593757 0.05625877 0.20064196 -0.09808
000330 1e 8c 7f 3e a1 6f 49 be 56 0a 36 3d d7 db 81 3e
       0.24955794 -0.1967149 0.04444345 0.25363037
000340 df da 3c bd 49 0a 49 3e d0 a5 a1 bd a6 99 4c 3e
       -0.04610717 0.1963283 -0.07892954 0.19980487
000350 71 7c af 3b bb 85 d5 bd 40 0c 4a bd c2 c1 11 be
       0.0053554107 -0.10425898 -0.04932809 -0.14234069
000360 79 50 8c 3e f2 fc f5 bd e5 d9 3b 3e 7c 4f 9f bc
       0.27405146 -0.12011136 0.18344839 -0.01944708
000370 1d 94 1e 3e 6f e7 e8 3b 26 14 30 be dc e5 0c 3c
       0.15486188 0.007107667 -0.17195186 0.008599725
000380 d6 df ad bd 24 a7 00 be 46 fc 53 3e 16 f6 e8 bd
       -0.08489959 -0.12563759 0.20701703 -0.11375062
000390 c4 91 12 be 75 a9 61 3d 56 1f b0 3d 69 18 9f bc
       -0.14313418 0.055093247 0.08599727 -0.01942082
0003a0 4a 6b be 3d 01 ef 67 bc cf ec 30 3e e0 2a 0c be
       0.092978075 -0.014156104 0.17277835 -0.1368823
0003b0 a4 93 57 bd f4 93 92 bd 3c 62 2b 3d 08 99 f1 3b
       -0.052631035 -0.07157126 0.04184173 0.007372979
0003c0 ca 6f d7 3d 8b 0a 04 bd d8 88 9f bd 9b 50 5a 3d
       0.10519369 -0.032236617 -0.07789773 0.053299528
0003d0 2a 2d ba 3d 56 0f 4a 3e 2f 27 15 3e d0 97 18 3e
       0.090906456 0.19732413 0.14565729 0.14901662
0003e0 95 a8 da 3c 69 17 d1 bd 93 b2 9e 3e 57 58 c9 bc
       0.026691714 -0.10209543 0.30995616 -0.024578257
0003f0 c5 53 59 bd cc 01 d6 3d 90 2b 70 3d 7c d0 bd bd
       -0.053058404 0.104495615 0.058635294 -0.09268281

rnn.bias_ih_l0 f4 [64]
000000 bc b9 7a 3d 4d ba eb bd 02 01 4e bd 4c b9 95 3d
       0.061212286 -0.115101434 -0.05029393 0.07310733
000010 6c 85 75 3d 22 54 ae bd 80 9d 1a 3e 01 4e e1 3d
       0.059941694 -0.08512141 0.15099144 0.11001206
000020 7c 57 64 bd 44 41 1c 3e 19 5d 21 be bf 7f 11 be
       -0.055747494 0.15259272 -0.1575817 -0.14208888
000030 8f 2f 31 be bd 9b d0 bd 02 2b c4 3d c6 38 d3 bb
       -0.17303298 -0.10185955 0.095785156 -0.006445977
000040 59 f9 c4 3b c9 13 87 bd 4c fc 9b 3c e3 9f 81 bc
       0.00601117 -0.065955706 0.019041203 -0.01582331
000050 bd d5 30 bd 96 3b 04 bd 90 33 0d be 76 99 93 ba
       -0.043172587 -0.032283388 -0.13789201 -0.0011260945
000060 b4 48 9a 3d d2 c9 bb bd 6f 17 21 3e 87 47 34 bb
       0.07533398 -0.091693535 0.15731595 -0.0027508454
000070 7d 93 34 bd d3 d5 ab 3d 12 10 03 3e 2a 86 a0 bc
       -0.04408597 0.08390393 0.12799099 -0.019595224
000080 09 95 18 bd 1d 68 b6 bc 75 05 8d 3d 91 ca f6 bb
       -0.037251506 -0.022266442 0.068858065 -0.007531472
000090 0a 01 3b 3d 1d f7 af bd 85 fd f3 3d 27 64 c7 3d
       0.045655288 -0.08592055 0.119135894 0.097358994
0000a0 dc 40 fd bd 7f 09 b3 3d 0d 82 0c be 7b 12 6e 3d
       -0.123658866 0.087420456 -0.13721485 0.058123093
0000b0 b1 84 b5 bb 76 d6 0f be 61 f5 be bd 51 33 03 3e
       -0.0055394997 -0.14046654 -0.09324146 0.12812544
0000c0 f4 a2 14 3d 6b 1e 9e 3d 94 81 81 3d 29 95 49 3e
       0.036288217 0.077206455 0.06323543 0.19685806
0000d0 3c 87 72 3c cc db d1 bd 86 0f 71 3d bc 42 d7 bb
       0.01480275 -0.10247001 0.058852695 -0.0065692347
0000e0 58 28 99 3d be 7d 48 bc b4 3d 5b 3d 10 00 14 3e
       0.07478398 -0.0122370105 0.05352564 0.14453149
0000f0 48 88 06 3d 1a 31 29 3d 23 6b f9 3a c7 8c 63 3d
       0.03284481 0.041306593 0.0019029122 0.055554178

rnn.bias_hh_l0 f4 [64]
000000 4f c3 58 bd d9 8a 5a bb 3e 38 97 bd 9e f5 9f bd
       -0.052920636 -0.003334692 -0.07383774 -0.0781052
000010 17 02 6c bd b8 5a 9a 3d cd a9 ac 3a 7a c5 e6 3d
       -0.05761918 0.075368345 0.0013173163 0.112681344
000020 67 2c d6 bd f8 d7 15 3e 62 0d 22 be 37 c5 45 3c
       -0.10457688 0.14633167 -0.15825418 0.012070945
000030 62 e7 f9 3c 7e 07 98 3d 68 b4 94 bd 79 b4 ca 3d
       0.03050584 0.07423304 -0.07260972 0.09897704
000040 28 4b 32 3e 71 59 4d 3d 13 54 29 be 6f d9 70 3d
       0.17411482 0.050134126 -0.16535978 0.05880111
000050 8a f5 ed bd 15 18 d5 3d cd d7 a3 bd 2b e4 c6 bd
       -0.116190985 0.10404984 -0.08000145 -0.09711488
000060 6b d1 7a 3c 0e ee 0c be 5e 2e 0a 3e 64 da fe 3d
       0.015308718 -0.13762686 0.1349425 0.124439985
000070 10 2e 65 3d 0f 9c 35 3d 61 2b 81 bc 85 ec ff bc
       0.05595213 0.044338282 -0.015767755 -0.031240711
000080 e1 ad 4f 3d 23 24 ae bd 29 6b ac 3d db 3c 01 be
       0.050702933 -0.08502986 0.08418877 -0.12620871
000090 59 1a ce bc cb 89 64 bd 07 7c 1b 3e 04 25 14 3e
       -0.025159048 -0.055795472 0.15184031 0.14467245
0000a0 c5 0b 57 bd 2f 1a 89 bd ae 96 87 bc 9c 96 b3 3d
       -0.05250146 -0.06694447 -0.016551342 0.08768961
0000b0 b7 5d 80 3d 18 53 a7 3d 48 46 0d be 1d 51 de 3d
       0.06267875 0.08170146 -0.13796341 0.10855315
0000c0 01 ab 04 be ad 35 d2 bd 4a 2d e7 bd d1 cb f4 3d
       -0.12955858 -0.10264144 -0.11287935 0.119529374
0000d0 60 cd 56 bb ed 93 ff bd 82 d3 04 3e 05 3e 72 bd
       -0.0032776222 -0.124793865 0.12971309 -0.059141178
0000e0 52 16 87 3b d9 6d 3f 3e a3 97 17 3e 9e 0f 85 3d
       0.004122534 0.18694247 0.14803939 0.06497119
0000f0 68 2d d7 3d 24 5e 81 bd 12 c0 4b 3d 42 b2 b3 3d
       0.105067074 -0.06316784 0.04974372 0.08774234

fc.weight f4 [324, 64]
000000 20 18 9f be 00 6d dc 3d 5f 04 bf 3e f0 bc 46 3d
       -0.31073093 0.107629776 0.37308022 0.04852003
000010 3b 84 cd 3d 25 09 81 3e f9 f2 10 be 52 90 ba 3d
       0.100349866 0.2520229 -0.14155187 0.09109558
000020 9d 8e 45 3d 0c 44 d4 be 45 4d a8 3e 4c 43 4d 3e
       0.04823171 -0.41458166 0.32871452 0.20045203
000030 76 9a 2e 3d 2a 37 93 3d a4 b2 aa be 5c 6c d3 bd
       0.042627774 0.07188256 -0.33339417 -0.10323402
000040 37 24 83 be 52 33 80 bd d1 81 2e 3e fa 8c d5 3d
       -0.25613567 -0.062597886 0.17041709 0.1042728
000050 15 22 c2 3d ad ce 5e be 61 b1 be 3e ef d0 50 be
       0.09479157 -0.21758528 0.37244704 -0.20392202
000060 5b 8c a6 bd 4e 32 c8 3e ce e2 9c be ae 01 d6 bd
       -0.081322394 0.3910088 -0.30641788 -0.10449539
000070 ed d0 39 be c2 be a8 be 28 be 5f be d7 9c ca bc
       -0.18146105 -0.32958037 -0.21849883 -0.02473299
000080 db b6 49 3e 26 79 5d 3e a9 bd 08 bc d6 e3 9d 3e
       0.1969866 0.21628246 -0.008346 0.30837888
000090 da ab b3 3e ce 4a 16 bd 34 58 dc be 70 83 ae be
       0.3509205 -0.036692433 -0.43036044 -0.34084654
0000a0 55 29 ad 3d a4 7f fd 3d 85 94 3d bd b3 48 aa be
       0.08455149 0.12377861 -0.046284217 -0.3325859
0000b0 13 24 12 3e ae 4c 71 3d 83 a7 a5 3e b5 65 ad be
       0.14271574 0.058911018 0.32354364 -0.3386666
0000c0 cc 4c 99 3e 05 ed 90 bc 45 0e 39 3e 6f 95 cb be
       0.29941404 -0.017691145 0.1807185 -0.39762446
0000d0 0e 1f a1 3b ad b2 26 3e 32 be 6d be a4 ca be 3c
       0.004917032 0.16279097 -0.23217085 0.023289986
0000e0 2f 1e ca bd 8d 63 99 be a5 59 82 be 66 ce d2 bd
       -0.09869038 -0.29958764 -0.25459018 -0.10293274
0000f0 19 96 a4 be 6a ad 22 3e bd 07 5c be d5 de 93 be
       -0.32145765 0.15886465 -0.21487327 -0.28880945
000100 7e 38 d1 be cd 5a 4c 3d 08 72 e9 3e 23 2d 6d 3d
       -0.40863413 0.049891282 0.4559481 0.057904374
000110 db 5a ce 3d 36 67 44 3e bf 17 19 bd c6 7e 69 3d
       0.10075923 0.19179997 -0.03737616 0.057005666
000120 e2 2e 2b 3d 08 24 de be 1b 64 04 3f 98 f0 1c 3e
       0.041792758 -0.43386865 0.5171525 0.15326154
000130 40 2d 85 3c 3f d4 24 bc 83 3f 95 be 55 be ea bd
       0.016256928 -0.010060369 -0.29150018 -0.11462084
000140 fe 29 99 be ea fa 58 3c 47 4d 9b 3e aa c9 ca 3c
       -0.2991485 0.013243416 0.30332395 0.024754364
000150 b2 fe 9b bc c3 4c ba bd cd 69 b4 3e 04 19 fd bd
       -0.019042347 -0.090966724 0.3523697 -0.12358287
000160 7a 09 1b 3c d4 3b f0 3e ff f6 82 be 7d a1 d9 bd
       0.009462709 0.46920645 -0.25579068 -0.106265046
000170 f9 a8 4a be 91 9b f2 be bd 61 a5 be ec 5d cb bc
       -0.1979102 -0.47384313 -0.3230113 -0.024825059
000180 d3 7b fb 3d 0d 93 37 3e e3 a4 d5 bd 71 0d 5d 3e
       0.12279477 0.17927189 -0.1043184 0.21587159
000190 e9 21 9e 3e 6f 8d a7 bd 8c 7e 90 be 4b b7 af be
       0.30885246 -0.08181273 -0.28221548 -0.3431953
0001a0 f5 13 0a 3e 3f b8 0e 3e d0 41 8f bd 72 2a a5 be
       0.13484176 0.13937472 -0.069949746 -0.32258946
0001b0 2e f2 04 3e aa 47 6d 3c ad e2 d1 3e 65 99 93 be
       0.12983009 0.014482418 0.40993252 -0.28827968
0001c0 5e 80 53 3e ac 0a aa bd fd e0 59 3e 7e 9b d5 be
       0.20654437 -0.08302817 0.21277232 -0.41720194
0001d0 36 ab 7e 3d 43 fc 75 3e d5 14 fa bd 6c 44 b0 3d
       0.062175 0.24022011 -0.12211005 0.086068004
0001e0 4c ef e8 bc d1 1c 66 be 43 1a 1a be 67 46 fb bd
       -0.028434418 -0.2247193 -0.1504908 -0.122692876
0001f0 70 d2 72 be 37 f2 28 3e 92 a4 ee bd 68 77 99 be
       -0.23713088 0.16498648 -0.11652483 -0.29973912
000200 b7 c7 81 be fe e1 55 3d 86 89 8e 3e 2f 00 10 3e
       -0.25347683 0.052217476 0.27839297 0.1406257
000210 b3 bf a3 3d 58 60 a9 3e dc 5c d2 bc bf 9b 76 3d
       0.07995548 0.33081317 -0.025679044 0.060207125
000220 93 88 28 3e b6 d9 b9 be 0f d3 af 3e fe aa 13 3e
       0.16458349 -0.36298913 0.34340712 0.14420697
000230 aa df 1f 3e a6 83 eb 3d c4 30 c0 be 75 65 c2 bc
       0.15612665 0.11499719 -0.37537205 -0.02373002
000240 46 dd 75 be 5a 2a 08 3e d7 be ad 3e 03 92 6d bd
       -0.2401019 0.13297406 0.33934662 -0.058000576
000250 32 93 cf 3d 56 1a 61 be 0b 04 96 3e cd 2e c7 bd
       0.10135497 -0.21982703 0.2929996 -0.097257234
000260 f0 0a ea 3c 33 da e2 3e f0 dd 82 be 81 b5 1f be
       0.028569669 0.44307098 -0.2555995 -0.15596582
000270 be c0 3d be be d7 d0 be 3b 20 68 be d3 f4 fb 3d
       -0.18530557 -0.40789598 -0.22668545 0.12302556
000280 89 b4 78 3e 84 5d f5 3d 85 d0 ba bc 93 8c 92 3e
       0.24287619 0.11980727 -0.022804508 0.28622875
000290 4d 32 6d 3e 7b a1 a3 bd 31 3d c5 be fc 1d 77 be
       0.2316372 -0.07989784 -0.38523248 -0.24132532
0002a0 2e 87 f9 3d 66 07 28 3e 76 64 25 be bb e5 8c be
       0.121839866 0.16409072 -0.16151604 -0.2751902
0002b0 1c 37 e6 3d c6 19 84 bd 80 1c 09 3f 38 b1 44 be
       0.1124098 -0.064502284 0.5355911 -0.19208229
0002c0 06 44 aa 3e fc ca 0e bd 26 39 08 3d c9 b9 01 bf
       0.33255023 -0.03486155 0.033257626 -0.5067411
0002d0 94 d0 19 3e 28 07 6c 3e 8f e7 07 be 25 06 d2 3b
       0.15020972 0.23049605 -0.13271926 0.006409424
0002e0 54 5c b4 bd 1a e8 27 be 64 20 48 be 38 a0 59 be
       -0.08806673 -0.16397133 -0.19543606 -0.21252525
0002f0 f3 47 7a be b1 ec 48 3e 1d c9 64 be a1 8f a6 be
       -0.24441509 0.1962154 -0.22342344 -0.32531455
000300 df 3b 80 be ad e0 06 3e 76 24 bd 3e b9 39 b4 bb
       -0.25045678 0.13171645 0.3694188 -0.005500045
000310 02 3a 97 3c e6 e5 b5 3e de 19 28 be 86 22 fe 3c
       0.018460277 0.3552696 -0.16416118 0.031022321
000320 e7 b9 3f 3d 1f f9 b6 be 5b 14 ff 3e 7e 23 99 3e
       0.04680815 -0.3573694 0.49820217 0.2990989
000330 bb bd c4 3d 20 82 e3 3d 7b 3e 84 be db 25 7d bd
       0.09606501 0.11108804 -0.2582892 -0.06180368
000340 17 0e 6a be d4 54 95 3d 25 57 72 3e f2 a7 ca 3c
       -0.22856937 0.0729157 0.23666056 0.024738286
000350 0a ed f8 bb 7d 64 1a be f9 f6 98 3e 1e f5 47 be
       -0.0075966166 -0.15077396 0.29875925 -0.19527099
000360 1c f4 d0 3b 31 63 f6 3e 20 55 9f be 4c 88 5a bd
       0.0063767564 0.48122552 -0.31119633 -0.05335264
000370 8b 5e 74 be 0d f8 da be 5e 00 62 be 69 9c 9c 3d
       -0.2386419 -0.42767373 -0.22070453 0.0764702
000380 5d b1 45 3e 41 cd 43 3e b1 bc 82 3b 89 1f 90 3e
       0.1930594 0.19121267 0.003989779 0.2814906
000390 1e 7b 2f 3e 87 bc ef bd d4 a8 be be 18 cb 8e be
       0.17136809 -0.117058806 -0.3723818 -0.27889323
0003a0 82 33 2d 3e 1e 59 f6 3d 8c 6e e1 bd ab 15 57 be
       0.1691418 0.120287165 -0.11007413 -0.2100436
0003b0 11 ec 52 3e 41 32 5c 3b a7 af 06 3f 54 09 ab be
       0.20597865 0.003359929 0.52611774 -0.33405554
0003c0 43 fd a9 3e 0e 8f e8 bc b6 86 0c 3e 87 18 d0 be
       0.33201036 -0.028388526 0.13723263 -0.40643713
0003d0 45 08 29 3d d3 52 a9 3d 39 e1 47 be ab 45 9e bd
       0.041267652 0.082677506 -0.1951951 -0.07728132
0003e0 1f 47 9f bd f6 ce 47 be b2 86 ae bd 7e 5a 56 be
       -0.07777237 -0.19512543 -0.08521785 -0.20932958
0003f0 4a d1 88 be 8c e2 36 3e 94 b7 54 be b9 83 3d be
       -0.26722175 0.17859858 -0.20773154 -0.1850728

fc.bias f4 [324]
000000 64 3e 02 bf 68 85 13 bf 6e b7 ea be 0d 38 d1 be
       -0.5087645 -0.57625437 -0.4584307 -0.40863076
000010 2f a8 f4 be 99 89 c6 be ff 70 06 3b ec 53 06 bd
       -0.47784564 -0.38776854 0.0020514128 -0.032794878
000020 24 44 12 bf ef d6 65 bc bb ff 1e bf fb 4a 17 bf
       -0.57135224 -0.014028295 -0.62108964 -0.59098786
000030 fb c1 ea be e7 cc ec be d5 11 13 bf e1 5b 1c bf
       -0.4585112 -0.46250078 -0.57449085 -0.61077696
000040 71 8d eb bd 05 99 d9 be c0 9e f0 be bd 8e 13 bf
       -0.11501587 -0.42499557 -0.46996117 -0.57639676
000050 b3 01 03 bf 01 0e d6 be 75 74 0e bf 49 6e 05 bd
       -0.5117447 -0.4180756 -0.5564645 -0.03257588
000060 2f fc 1c bf 85 8e 08 bf 34 00 22 bf f9 2f 16 bf
       -0.613223 -0.5334247 -0.6328156 -0.5866695
000070 df 6e 3c bd 9b a8 e7 be aa ae 00 bf b5 29 22 bf
       -0.046004172 -0.45245823 -0.50266516 -0.6334489
000080 b0 dd a7 bc 29 3c 22 bf a0 81 dd be 08 e4 fa be
       -0.020491451 -0.6337305 -0.4326296 -0.490021
000090 03 bb 1b 3b f0 ab 0c bf cb b5 09 bf 0f 75 08 bf
       0.002376259 -0.54949856 -0.5379302 -0.5330362
0000a0 03 6b d0 be b5 e9 8a bd de a4 07 bf 20 46 09 bf
       -0.40706643 -0.06782857 -0.5298594 -0.5362263
0000b0 f5 1f 16 bf d2 bc de be dc 35 14 bf ee ea 1c bf
       -0.5864251 -0.43503433 -0.5789468 -0.61295974
0000c0 aa fb fb be 91 f6 b6 bc 7d a3 0a bf f5 b7 22 bf
       -0.49215442 -0.022334369 -0.54155713 -0.63561946
0000d0 32 8e 54 3d 39 75 77 3d 78 c6 84 3d 2d d6 dd be
       0.05189342 0.060414527 0.064831674 -0.43327466
0000e0 ab dd c8 be 4c e2 f0 be cd ce f0 3c 01 0f ee be
       -0.3923162 -0.4704765 0.029395485 -0.46495822
0000f0 59 95 c2 be 3c 96 17 3d df b0 fc be 86 f3 da be
       -0.38004568 0.03700851 -0.49353692 -0.4276392
000100 be d3 0d bf d7 76 9a 3c ad 7f 0e bf b0 c9 c7 be
       -0.5540122 0.018855495 -0.5566357 -0.39021063
000110 63 43 cb bd 00 68 19 bf dd fb 02 bf ed 74 fb be
       -0.09924962 -0.59924316 -0.5116556 -0.49112645
000120 08 66 98 bc 68 24 f1 be 66 76 b2 3d aa 38 c8 be
       -0.01860334 -0.47098088 0.08713989 -0.3910573
000130 f8 84 d0 be 86 a4 11 bd cc fc fd be f9 74 e0 be
       -0.40726447 -0.035557292 -0.4960693 -0.43839243
000140 8b 53 03 bf fa 16 e8 be a6 82 15 bf c4 b2 e9 be
       -0.5129935 -0.4533003 -0.5840248 -0.456442
000150 26 8f d4 be 97 99 51 3d 36 df d2 be c1 4c fc be
       -0.41515464 0.051171865 -0.4118592 -0.4927731
000160 68 79 22 bf be 9d e1 be 7d 5e c6 be 85 13 a4 bd
       -0.634665 -0.4406566 -0.38743964 -0.080115356
000170 47 7b 0b bf 68 b0 1c bf 38 16 06 bf c6 03 a6 bb
       -0.5448498 -0.61206675 -0.52377653 -0.005066368
000180 85 7f c1 be 06 b2 c9 be 42 57 7b 3c 03 ed 04 be
       -0.37792602 -0.39393634 0.015340628 -0.12981038
000190 44 e7 40 3c 48 35 f6 be c9 53 8c 3d 2f 0b 0c bf
       0.011773888 -0.48087525 0.06851918 -0.54704565
0001a0 c8 ea 02 bf 66 04 c6 be e7 cb b7 3c d6 73 1c bf
       -0.511395 -0.3867523 0.022436095 -0.6111425
0001b0 c5 0a 0f bf ea 9d c8 be 85 ce 2c 3d 77 49 0c bf
       -0.5587581 -0.3918298 0.04218914 -0.547996
0001c0 07 f2 ae 3d 73 4c 89 3d 4e 27 6c bd 55 6c 02 bf
       0.08542257 0.06704035 -0.05765467 -0.5094655
0001d0 44 45 10 bc f9 db df be 6c ce 14 bf 96 61 07 bf
       -0.008805577 -0.43722513 -0.58127475 -0.5288328
0001e0 67 dd e3 be 11 e2 0e bc 1b 19 d0 be 24 02 f1 be
       -0.44504854 -0.008720891 -0.40644154 -0.47071946
0001f0 37 c6 bf bc b2 5f 0a bf aa 3c 12 bf 89 cd 01 bf
       -0.023409946 -0.5405227 -0.57123816 -0.50704247
000200 a7 c4 95 3d ab 9f fc be 50 ea 09 bf 87 ab a7 bc
       0.07312899 -0.49340567 -0.5387316 -0.020467533
000210 1f 96 00 bd 18 89 12 bf f2 96 3e bd 11 1f d7 be
       -0.031393167 -0.5724044 -0.04653067 -0.4201589
000220 a3 2e 8e bd 16 5f 1e bf ed f1 02 bf a6 0b e7 be
       -0.06942489 -0.6186384 -0.511504 -0.45126075
000230 48 c2 c7 be 19 45 01 bf 9d cc 03 bf b6 82 02 bf
       -0.39015412 -0.5049606 -0.5148409 -0.509807
000240 df fa 07 bf e1 4c bd 3c 4e 9b dd be 0f 6f f4 be
       -0.53117174 0.023107948 -0.4328255 -0.4774098
000250 92 a2 08 bf 2d d6 1d bc 9d 93 e3 be 47 4f 18 bf
       -0.5337306 -0.009633583 -0.44448557 -0.5949597
000260 2d 03 da be 6a f9 cc be 4b 5c 1b 3c b3 11 15 3d
       -0.42580548 -0.40034038 0.009482454 0.036393832
000270 8c 41 08 3c 31 e2 c6 be 8a a7 00 bf 9e 96 25 bf
       0.008316409 -0.38844445 -0.50255644 -0.6468295
000280 de 4f 1f bd fd fe 16 bf 15 cf e9 3c e1 e6 f9 be
       -0.038894527 -0.5898283 0.028541127 -0.4880896
000290 08 14 01 bf 3c ba e1 be 3b 7f f4 bd f2 90 03 bf
       -0.5042119 -0.44087398 -0.1193833 -0.51393044
0002a0 22 f5 1d bf f6 e8 07 bf 51 42 aa 3c ae 74 e2 be
       -0.6170217 -0.53089845 0.020783575 -0.44229645
0002b0 51 68 e2 be bc d9 62 bd 74 8e 00 bf a7 8b cd be
       -0.44220212 -0.05538343 -0.50217366 -0.4014561
0002c0 ca 66 c9 be 99 a1 ef be e9 dd 0b bf a0 49 5f 3b
       -0.39336234 -0.46802977 -0.54635483 0.0034070984
0002d0 89 e3 e7 be bd a3 d0 be c1 2e e9 be cb ef d1 be
       -0.45290783 -0.40749922 -0.45543483 -0.4100326
0002e0 b1 68 d3 3c 87 1a 8c bc 24 5d 11 bf c7 fc d6 be
       0.025806757 -0.017102493 -0.56782746 -0.4198973
0002f0 07 63 d4 bd af 7c 09 bf ec c3 e3 be c7 92 a3 bb
       -0.103704505 -0.5370588 -0.44485414 -0.0049918625
000300 81 c6 06 bf b7 20 e0 be 6a 44 65 3c 91 3e 15 bf
       -0.5264664 -0.4377496 0.013993362 -0.58298594
000310 f7 01 0b bf 46 ae d2 be f5 a8 14 bf e5 3a 5e bd
       -0.54299873 -0.41148585 -0.5807031 -0.054255385
000320 a6 83 08 bf e8 da 0b bf 7d 27 17 bf 94 15 f0 be
       -0.5332588 -0.546309 -0.5904463 -0.46891463
000330 f1 ed 14 bf d7 25 17 bd bf b2 1b bf 4a 78 3d 3d
       -0.5817557 -0.03690132 -0.6081962 0.046257295
000340 a9 e3 0b bf 2e da 92 bd 42 19 ed be f1 b3 da be
       -0.54644257 -0.07170521 -0.46308333 -0.4271541
000350 bf 63 1c bf 41 94 e8 be 97 67 f3 be 13 9b 55 bb
       -0.610897 -0.4542561 -0.4753997 -0.0032593652
000360 ce 94 d1 be 99 54 00 bf c8 a9 f4 be 09 fe 10 bf
       -0.4093384 -0.50129086 -0.47785783 -0.56637627
000370 0d 9f bf 3c c2 8b 04 bf c4 d3 f3 be 37 d2 08 bf
       0.023391271 -0.51775753 -0.47622502 -0.5344576
000380 51 a2 ea be 69 33 d3 bd b4 91 fa be ac a4 08 bf
       -0.45826963 -0.1031254 -0.48939288 -0.5337627
000390 68 84 08 bf 4f 9a 0a bf 00 12 1d bf fd 1c cb be
       -0.53327036 -0.54141706 -0.6135559 -0.39670554
0003a0 48 ee 18 bf 03 5b 6b bc be ed ed be 5a 12 0c bf
       -0.5973859 -0.014364961 -0.46470445 -0.547155
0003b0 4f 40 f2 be 3f 4b d0 be 05 f5 af 3b f2 17 01 bf
       -0.4731469 -0.40682408 0.005369785 -0.5042716
0003c0 22 02 10 be c9 89 05 bf 71 73 e0 be 9f 47 f2 be
       -0.14063314 -0.5216337 -0.43838075 -0.47320268
0003d0 34 9e 8f 3d 2a d7 fc be 30 7e 56 3d c3 a1 1a bf
       0.07012597 -0.49382907 0.052366436 -0.6040308
0003e0 98 22 db be 3c 54 e1 bc 7d 76 ec be 83 17 fb be
       -0.4279983 -0.027505986 -0.4618415 -0.49041376
0003f0 01 2e 0e bf b1 85 04 bf 78 9a 0c be f2 57 d2 be
       -0.55538946 -0.51766497 -0.137308 -0.41082722
